pretrained/nameLan/checkpoint_lstm_cell_level.pth (torch, 133655 bytes, 6 tensors)

lstm_cell.weight_ih f4 [256, 58]
00000000: 6c47 ce3d d4fb 143e a7bf 17bd 9157 4d3e
00000010: d0c6 e7bc 0e0e b83d 75d4 a4bc 30bf 6b3c
00000020: 4dfd 063e 3652 e1bd 2ad1 083e d8ef 043b
00000030: 6c93 383e ca2d 9ebc a581 b13d 9928 3abd
00000040: dfba c23d f9d7 f93d 7a02 f7bd d285 d3bb
00000050: 8cdc 87bd a644 b93c eaa1 67bd a234 a53d
00000060: 6f29 f6bc 9a02 11bd 65c4 40bd 45f6 9fbd
00000070: ae9e 61ba 9885 01be 46d0 ea3d 342e f8bd
00000080: 5404 be3d cd44 473c 91eb 06bd 0d0c a53d
00000090: 587d 813c 6b9d c73d 09e1 82bb 541a 51bd
000000a0: ab3f 0d3d 3ff6 07bd d783 413d c42c ea3d
000000b0: 19d5 653d deaa 84bd f7fe 983d 7c8c 0d3d
000000c0: 419d 673d fb7e a1bd 8793 05be 2b45 3abd
000000d0: 89f8 c2bd d60e d23d 9719 153d cc13 543d
000000e0: b49d 163d 04f2 f4bb 8ec3 983e 01d2 1dbe
000000f0: fd19 e0bc 6bfc 69bd 69b9 3ebb ec4a 13bd
00000100: 59ce a23d 95c3 abbc 6d0c 55bd da85 47bd
00000110: ad89 9cbd 2a0b 96bb ec47 573e 2b42 2c3d
00000120: 44c0 943d c86a e5bd 9c34 fcbd 6d67 91bd
00000130: 9b65 2fbd adc3 01bd 32f6 583e e625 4f3e
00000140: c71e acbd 0c91 b2bd da13 013e d0a9 5b3c
00000150: 132c 043d 0aa6 6fbd 2279 5b3d e43f cbbd
00000160: 2b5d 4dbd 63bd 433d db9c f33c 9582 07bd
00000170: 1d06 743d a061 023e a6d2 efbd 5700 9bbb
00000180: 1bc5 de3d 0f03 71bd cdb8 63bd 2272 c2bd
00000190: 9301 92bd 0aec 9a3d 51de 80bd cea8 d7bd
000001a0: 206b 9b3a d6e7 85bd 3dfb aebd 2266 8bbd
000001b0: eb1a b5bd bfc5 a1bd 7326 fb3d 7068 c13c
000001c0: 7819 1e3d 66c4 eebd d216 d1bd f358 20bd
000001d0: 644e 243d dbf9 53bd 670e 1bbd 19de b9bd
000001e0: 785d 3f3d c832 28bd ba7d 00bd 0607 cfbd
000001f0: 7144 853d 0754 8abd 7f6c 19bd 2ab6 69bd
00000200: 997a ea3d ff1a fe3c 6c5d 853e 7b19 3a3d
00000210: d1a9 d6bd 5543 973d 9c8f ecbb 85c1 bfbd
00000220: bdd9 b6bd d79b f2bd 9b0b b43c a1aa f1bc
00000230: f156 ef3d c01f 04be c62b bf3d 29db fdbd
00000240: 1f2d 9ebc abdf de3c 6f34 823d 562a d23d
00000250: b74c e73d b6e1 d8bd 0412 b13c 3153 4bbd
00000260: 7cc8 5dbb 95d4 a3bd e747 e53d 66d4 dbbd
00000270: 8e14 813d ab68 7b3d 79e3 193d feb8 3abd
00000280: df28 e23d 4591 053c 5207 7f3c 76e4 cfbd
00000290: f6e1 573d 2c1a aabc 3007 63bd 878e dc3d
000002a0: 4ac3 f53c 86a3 8dbd 7544 81bd 809b c3bb
000002b0: dbcf 5e3d 6dcb 16bd c4d1 eabd 0e16 79bd
000002c0: efca 3cbb 6b4c 09bd 4401 323e 3e66 4bbc
000002d0: 10a0 99bc d899 84bd 6b60 ae3d 5bcd 36bd
000002e0: 9757 933d 581d ab3d 9ca8 163d 15bd a93d
000002f0: 84f4 023d fe4f 233c 8447 eabc 4bbb 143b
00000300: fb67 353d 9cb7 14be 1920 043d 56ab a2bb
00000310: 52a8 113e 7403 eebb 5f1f 8dbc df42 0a3e
00000320: 5b23 02be e554 84bd 5faa 003e 1f67 873d
00000330: e337 3f3b 80e1 56bd a40f ccbd f991 ffbd
00000340: 2eb1 5fbd 6cdc 193d 46dd 643d 1149 8c3d
00000350: 9d1c f3bd e7bd 94bd 9fca 54bc 6461 0e3e
00000360: bebc 3e3c 7f65 c8bb ec08 853c 5eb7 5fbd
00000370: 7ad2 a5bd 9629 9a3d 7193 34bd 627c d9bc
00000380: a447 03be b0d9 9c3d 8f8e a43d f498 3a3d
00000390: a3f9 afbd 18a8 fcbd 56a2 a5bd 2ffa c83d
000003a0: 82fd 3c3e e9d5 323e 81b9 053e 8c4d 883d
000003b0: c5a1 1d3d 0a61 013d 43a2 45be ed75 4dbe
000003c0: 11b1 07be 0b3f b0bd fe47 26bd 4b07 1cbd
000003d0: 1d67 053e 0aed 93be 4143 41bd 35de 633d
000003e0: e713 19bd 8ce1 f23d 8bcb 0fbc 93b6 22be
000003f0: a20b 103e 6cd8 e83c ba0b 123b bbb1 e3bd
0.100722164 0.1454919 -0.03704801 0.20052935 -0.028293043 0.08987056 -0.020120839 0.014388844
0.13182564 -0.110020086 0.1336104 0.002028456 0.18024987 -0.019308943 0.08667306 -0.045448873
0.09508299 0.12199397 -0.12061019 -0.0064551616 -0.06633863 0.022615742 -0.056550898 0.080666795
-0.030049054 -0.03540287 -0.047062296 -0.07810644 -0.0008606714 -0.12648618 0.11465506 -0.121181875
0.09278169 0.0121623995 -0.032939497 0.08058939 0.015806839 0.09746822 -0.0039941114 -0.0510505
0.034484547 -0.033193823 0.047244873 0.114343196 0.05611143 -0.06477903 0.07470506 0.034557804
0.056546453 -0.07885548 -0.13044558 -0.04547612 -0.095200606 0.10256736 0.036401358 0.051776692
0.03677149 -0.0074751396 0.29836696 -0.15412141 -0.027356142 -0.05712549 -0.0029102212 -0.035960123
0.07949514 -0.020967284 -0.052013803 -0.048711635 -0.07643447 -0.0045789676 0.2102353 0.04205529
0.07263234 -0.112020075 -0.12314722 -0.07099805 -0.042821508 -0.03168075 0.21187666 0.20229301
-0.08404308 -0.08719072 0.12605229 0.013407186 0.032268595 -0.058507957 0.053582318 -0.099242955
-0.05013768 0.047788035 0.02973788 -0.033083517 0.059576143 0.12732553 -0.117101 -0.004730265
0.10877439 -0.058840808 -0.05559616 -0.09494425 -0.071292065 0.07564552 -0.062924035 -0.10530244
0.0011857487 -0.0653836 -0.08544014 -0.0680659 -0.08843025 -0.07899045 0.12263193 0.02360937
0.038598508 -0.11658554 -0.10209431 -0.03914733 0.04011382 -0.051751953 -0.037855532 -0.09075565
0.046719998 -0.041064054 -0.031369902 -0.101087615 0.06507195 -0.06754308 -0.037456986 -0.05705849
0.11449165 0.031018732 0.26047838 0.045434456 -0.10481609 0.073858894 -0.007219268 -0.09363083
-0.08928249 -0.1184613 0.02197819 -0.029500308 0.11686505 -0.12902737 0.09334521 -0.12395317
-0.019308625 0.027206263 0.06357657 0.10261981 0.11293929 -0.10589926 0.021615036 -0.049639884
-0.0033841422 -0.07999531 0.11195355 -0.10733871 0.063027486 0.061379116 0.03757045 -0.04558658
0.11042952 0.008152311 0.01556571 -0.10150997 0.052705728 -0.020764433 -0.055426776 0.107693724
0.030000348 -0.06915955 -0.06311885 -0.005969465 0.054397445 -0.036815096 -0.11465791 -0.06081205
-0.0028807481 -0.033520143 0.17383295 -0.012414513 -0.018753082 -0.06474656 0.08514484 -0.044629436
0.07194441 0.08355206 0.036781892 0.08288018 0.03197147 0.009967802 -0.028598554 0.0022694643
0.044288617 -0.14523166 0.032257173 -0.0049642725 0.14224365 -0.0072635952 -0.017226873 0.13502072
-0.127088 -0.06461505 0.12564991 0.06611466 0.0029177598 -0.052461147 -0.09963921 -0.12479014
-0.05461233 0.037563726 0.055875085 0.06849874 -0.11870692 -0.072627835 -0.012987762 0.13904339
0.011641679 -0.006115615 0.016239606 -0.054618232 -0.08096786 0.07527463 -0.044085924 -0.026548568
-0.12820297 0.07658708 0.080350034 0.045556024 -0.08592536 -0.12336749 -0.08087604 0.09813344
0.1845608 0.17464413 0.13059045 0.06655416 0.038484354 0.031586684 -0.19300179 -0.20064516
-0.13251139 -0.086057745 -0.040596 -0.038092893 0.13027616 -0.28891784 -0.04718328 0.055631835
-0.037372496 0.11859426 -0.008776556 -0.15889959 0.14066938 0.02842351 0.0022284822 -0.11117884

lstm_cell.weight_hh f4 [256, 64]
00000000: 9839 dcbd a096 9f3d dc56 bebd a3cd c33d
00000010: 18c2 1a3d 5e33 453e 0402 95bc dd95 6ebd
00000020: c7d2 193e b584 043d d939 98bd 3f99 323e
00000030: 7b5c 03be 3b93 c0bc ebf2 003c 7f32 4f3d
00000040: 8ecc 993d f701 86bd ea29 9bbb 5f88 81bd
00000050: b1ae 013b 79c0 263e 111e 9e3d 5803 07bd
00000060: 7138 ca3d 3b54 d0bd 8dd8 a7bd 6119 0dbc
00000070: 566a b33d 9600 47be a1be aabd 1084 8fbd
00000080: 1c1e 5d3d 674a d5bd c0ce b63b bc4e 0cbe
00000090: b8c2 39bd 7191 653c b5f7 97ba 5f77 1cbc
000000a0: 92c7 ee3d eb60 5abd a0ac 52bd f265 ae3d
000000b0: 37e1 083e 9500 19bb 06df 803d 7dbe 0dbe
000000c0: b4ed cd3d 4e21 4abd 26c2 663d 092e 423e
000000d0: b6ff c5bd 1eee 97bd b514 ab3d 47fc 883d
000000e0: 145f ae3d 4c63 82bd 0e17 e63d 1ace d5bd
000000f0: 6150 81bd c55e f5bd 2b22 603d c3f4 42bd
00000100: fc6a 7a3d 9154 0e3e 47db 04bc 8930 b9bc
00000110: 8e82 ca3c 970e c5bc a59b c83d 7e62 cbbd
00000120: d9ee e93d 036d 673d c92f 0abe 437c 473c
00000130: 28c2 42bc 2a43 e1bb fbcc 12bd 971e f9bc
00000140: 6a10 c33d 8ffb 8bbd ab68 2cbe c94e 3abe
00000150: 97e5 bdbd 51f9 103e c5d4 b93d 5ed0 c53c
00000160: d69d ccbd 5783 9ebd 0695 22bd 9604 bc3d
00000170: d95d 96bc 5f0b bfbd aabd acbc a5e9 033e
00000180: ec4b bb3d 53b2 51be 5bcc 62bd 9bf5 0fbe
00000190: cb49 303d 1433 55bc 7ab6 7f3d 80c1 263d
000001a0: e740 0c3d 4c68 65bc ee3a b5bc a803 dabd
000001b0: 89d2 fbbd 9c07 38be 91c2 c03d f8e9 b83d
000001c0: ab8d 293e bd18 e03c 7a86 5abc 178a 183d
000001d0: ef60 01bd 1836 f5bd d067 11be 7132 6f3d
000001e0: 02ce 2d3d 32e8 cd3d 2dc7 793d b3af 1c3c
000001f0: 1a26 193e 610e d4bd 2f31 8cbb 3d15 64bd
00000200: 1815 923d 831b adbd 79ab c13d 85e3 ee38
00000210: 8ea2 ed3d ff87 473e 62b9 ee3d 77b9 643c
00000220: cbe7 2c3d e3ff 373e 7b1f 443d ea70 dabb
00000230: c833 2cbe a6dd ae3d 3d37 e7bd acc5 2bbe
00000240: ddc4 0f3e 8ef4 4dbc 4178 ecbd 81dd b83d
00000250: 6f8b 2b3d f4d8 603e 6d56 0ebd f9bd 073e
00000260: a6d6 0b3e 0245 d2bd 9c3c 29be 631b 583d
00000270: cf02 5fbd aea8 d73c 2b98 66be 6b5a 253e
00000280: ff5b 20bd 2e87 03be e1bd 893b f491 b6bd
00000290: 1af5 10be df1c 3ebd fa7f 6a3e d27e 23bd
000002a0: f14b a73d d790 de3c 11d4 9fbb a2fa a23c
000002b0: 8a7c 6bbd 21cc cbbd d316 b03d 8149 623d
000002c0: 0811 9e3e c4f4 29be c5bf fa3d 6c1a 10be
000002d0: 16a0 5ebe 9588 9bbe daa9 0abe 1892 9d3d
000002e0: 92bd 62bd 414e 233b 1fb6 213c 3109 a6bc
000002f0: 1f58 033e b8aa 94bc c4e9 92bd deef 02be
00000300: 240c 0b3e f6d9 303c 31f7 793d 1c1c a13d
00000310: 7ead 193d a4f7 223e 2e7d d93d fe8e 91bc
00000320: c8a5 303e b11c de3c 4ac9 4d3d 197b 183d
00000330: bdda 043c 67e3 903d 21bd 54be ee09 9cbd
00000340: 4b2f 443e cca9 fdbd cdb6 1abe 554d d93d
00000350: 1352 963c 2d4d ee3c c10f 6a3d 03b4 233e
00000360: 000a 7f3d e2d3 0dbe 63f0 1fbe d577 24bc
00000370: 6ceb 8dbe 1e0f 4fbe 9c2f 71bd d17f 15bd
00000380: f15f de3c 849f 5bbe 641c 163e 05e4 03be
00000390: 584e 85bd 0a03 88bd 9bf7 173e 250b 8dbd
000003a0: 540f b43c 1d64 ab3d 9de4 c0bc c2ed 0e3c
000003b0: 267f 00bd 28e6 d53d 00be b53b d45d 4cbd
000003c0: 10cb 15bc 47d7 2dbe 6c46 0c3e 17d7 9a3c
000003d0: e2ab 18be 04a9 94be 7fb4 edbc e863 05bd
000003e0: 105e 913d 48d4 d43c 860e d6bc d218 8a3d
000003f0: 920e e4bc f1f7 973d 7506 733e 02be 9fbd
-0.10753173 0.07792401 -0.09293911 0.095607065 0.03778276 0.19257876 -0.018189438 -0.05824839
0.15021811 0.03235312 -0.074329086 0.17441271 -0.12828247 -0.023507705 0.007870416 0.050585266
0.07509719 -0.065433435 -0.004735221 -0.06324839 0.0019787962 0.1628436 0.077205785 -0.032962173
0.098740466 -0.10172316 -0.08195601 -0.008612008 0.08760516 -0.19433817 -0.08337141 -0.07007611
0.053983793 -0.10414582 0.0055788457 -0.1370191 -0.045351714 0.014011727 -0.0011594208 -0.009549945
0.11659159 -0.053315084 -0.05143416 0.08515538 0.13367163 -0.0023346294 0.06292538 -0.13842197
0.10055104 -0.049348168 0.056337498 0.18962874 -0.096679136 -0.07418464 0.08353559 0.06688743
0.085142285 -0.063665956 0.11234866 -0.104397014 -0.06314159 -0.119809665 0.054720085 -0.047596704
0.061137185 0.13899447 -0.00810892 -0.022606151 0.024720456 -0.024054809 0.09795312 -0.09930895
0.1142251 0.056500446 -0.13494791 0.012175622 -0.011887111 -0.0068744617 -0.035840016 -0.030410094
0.09524615 -0.0683509 -0.16836803 -0.18194117 -0.092723064 0.14157607 0.09073786 0.024147209
-0.09991042 -0.07739895 -0.0396929 0.09180562 -0.018355297 -0.09328341 -0.021086533 0.12882097
0.0914534 -0.20478182 -0.05537067 -0.14058535 0.043039124 -0.013012666 0.062429883 0.04071188
0.034241583 -0.014001917 -0.022122826 -0.106452286 -0.12296016 -0.17971653 0.094121106 0.09029001
0.16557948 0.027355546 -0.013337726 0.037241068 -0.031586584 -0.11973208 -0.14199758 0.058397714
0.042432792 0.10054053 0.060980964 0.009563374 0.14955941 -0.10354305 -0.004278324 -0.055684317
0.071329296 -0.08452513 0.09456534 0.00011391103 0.116032705 0.19485472 0.11656453 0.013960234
0.042213243 0.17968707 0.047881585 -0.0066662924 -0.16816628 0.0853837 -0.11289833 -0.16774625
0.14039941 -0.012570513 -0.11546374 0.090266235 0.04188102 0.21957761 -0.03475039 0.13256063
0.136561 -0.102670684 -0.16527027 0.052760493 -0.054446038 0.02632555 -0.22518985 0.16147773
-0.039150234 -0.12844536 0.0042035435 -0.08914557 -0.14155999 -0.046414252 0.22900382 -0.039915867
0.081687815 0.027168674 -0.004877575 0.019894902 -0.057491817 -0.09951044 0.085981034 0.05524588
0.3087237 -0.16597277 0.122436084 -0.14072579 -0.21740755 -0.3037764 -0.13541356 0.07693881
-0.05535657 0.002491847 0.009870081 -0.020268055 0.12826584 -0.018147811 -0.071734935 -0.12786815
0.1357885 0.010794153 0.061026756 0.078666896 0.03751897 0.1591478 0.10619579 -0.01776838
0.1725074 0.02711329 0.050240792 0.03722677 0.008108792 0.070746236 -0.20775272 -0.076190814
0.19158666 -0.12385902 -0.15108795 0.10610453 0.018349683 0.029089535 0.05714393 0.15986638
0.062265396 -0.13850358 -0.15619044 -0.010038336 -0.27718675 -0.2022061 -0.058883294 -0.03649885
0.027145358 -0.21447569 0.14659268 -0.12879951 -0.065090835 -0.06641205 0.14840548 -0.06886891
0.021979965 0.083687045 -0.023546511 0.008723678 -0.03137126 0.104442894 0.0055463314 -0.04989417
-0.009142652 -0.16976653 0.13698739 0.018901391 -0.14909318 -0.290352 -0.029016731 -0.03256598
0.07098019 0.02598013 -0.026129972 0.06743015 -0.027838979 0.07420338 0.23732932 -0.07799913

lstm_cell.bias_ih f4 [256]
00000000: 9528 a13e 539a fc3e 797a 183f 698c f43d
00000010: d015 013f cc16 413e 4029 d13e 2f3d 3f3e
00000020: 6a12 663e 8477 0f3e f1b8 303f e794 cf3e
00000030: d8e1 7b3e ee3c a63e 3f22 6a3e e12f 853e
00000040: efb7 333e 0744 c43e 11a1 a63e 8949 1b3f
00000050: 8103 263f 4fe8 0f3e 2c2d 863e b4a1 a43e
00000060: 49ac 0d3d af19 483e f3f5 c43e f5ae 4c3f
00000070: 744f 5d3e c8e8 e63e 829d 553e 0cac 463f
00000080: 0a45 403e 0706 a73e d6d5 973e 8142 b53e
00000090: 0a42 323e 53f2 863e ab76 973e e39f b53e
000000a0: 953b 0f3f 70ea 8c3e 8e5f 4f3e eb1f 793e
000000b0: 3a5b 243f ce9c 5e3e be4a 053f 35da b93e
000000c0: 86b5 063f 42a1 643d bf9a 943e a68e 983e
000000d0: b38c e83e c24d 8d3e 4005 193f 6978 423e
000000e0: 49aa 953e 091a 4d3e b1e1 a73e b8e4 ef3e
000000f0: d4ce 223d bf1b 1c3e 5b47 fe3e 7115 013f
00000100: caeb b53c 99f0 a1be 71ad e9bd e820 5ebe
00000110: 22d2 83be 18bf 9ebd 48c5 3dbe ab48 14be
00000120: 871e 80bd 0914 aebd 81b8 d2be ecc3 a8be
00000130: 2a18 32be 3980 6abe b645 47be 72d9 33bd
00000140: 4979 38be 3177 84be aa71 86bc e27c 9abe
00000150: 1b33 c5be 88d0 55bd 6dd0 7fbe ddd6 f7bd
00000160: 293b 45be 598c 15bd c4d9 75be 35be 90be
00000170: c368 91be 846a 13be 2312 eb3d c0a3 b0be
00000180: dd0b 32bd 24c4 29bd 1638 03bf dfe1 58be
00000190: 5cfb 45bd 3988 b6bc 9228 00be cd53 4dbe
000001a0: 1b61 e1be 14cc 89be 0a1f 2bbe ba8c b7bd
000001b0: 33a0 c0be a0e5 21be ddd6 a5be 117f b7be
000001c0: 7af2 91be dd35 b93b a285 65bd 40dc 14ba
000001d0: 702e bcbe e9e5 8ebe c899 b3be ab08 6dbd
000001e0: 2164 0abe 8fb8 eabd b67d 6dbe 70db bcbe
000001f0: 769e 6bbd f879 2bbe 2d35 ecbe 2864 82be
00000200: 46c3 ab3e aaca de3e 5f62 16bf 5255 3abf
00000210: 34e7 bebd a847 383e 5692 c23d 355b ae3d
00000220: e1aa a63e fd5c d03e a97a 043f c409 5f3d
00000230: 1535 aabe 649d 61bd 1336 e0bd 62cf c3be
00000240: 03a2 573e 5a7d 0ebe c9de d5be f2a9 59be
00000250: 9f07 c5bd 3f45 af3e 2f44 423c df20 a03e
00000260: f7be 3ebd c5ee 86be e908 29be 3fa3 79bd
00000270: 7c1f f33d e8d1 9c3d c2e3 8ebe de8b be3e
00000280: be44 92be 4b89 cbbe afa8 29be 0f4a 3ebe
00000290: 3805 a5be a691 17be f2a2 f43e fe94 f03c
000002a0: 0328 ae3d 562f d43d d669 4d3d 723d a5be
000002b0: a151 81be d9d7 073b e34a 59be 004a c93e
000002c0: 4c8a ae3e 0819 73be 84bb d33e a3e7 d5be
000002d0: 739e c1be 5609 843d 6075 a43d 6d05 063e
000002e0: f5f0 873e 4f5e 15bd 5e08 d13d 0956 803e
000002f0: b865 a43e 32e0 03bd c2f8 323d 0100 073f
00000300: 5a89 d73d 8c30 073e b82d 203f 5b36 593e
00000310: d2a5 703e 9979 91bd c43b 8e3e 5b0f 4d3e
00000320: a6fc 92bd 9d06 d1bd e42d 2a3f 63d8 fa3e
00000330: 4a7c 993d 95a2 6c3e ce58 c53e ea3b e5bd
00000340: c720 923d b918 38bc 3492 47be 3e84 e03e
00000350: b4c0 b73e cb9a 09bd 9b02 323e 5cf3 ed3d
00000360: 8a75 8cbd 9d6c a9bd 2d89 053e 2e5f 073f
00000370: 954d 673d 0c36 9f3e 60a6 3ebe dcc6 9e3e
00000380: 0b66 ea3d 071f cebd ae0b a23e 6178 4a3d
00000390: 559b 033e 7f06 90bd f2ae d0bb b3eb 9e3e
000003a0: ffcc f93e fcf4 013e 7344 233d 7766 433e
000003b0: 3335 273f d633 e73d d54d fd3e 8110 9c3e
000003c0: 8190 d53b cbf7 e03d 0062 0f3e b345 b73d
000003d0: a515 883e e319 713e 91e7 163f cc1e e5bc
000003e0: b407 3c3e e6d3 863d beba 533e 814b 5d3e
000003f0: 7809 be3d 6310 1a3e 1cd8 203f 74b2 e73e
0.31476274 0.4933649 0.5956188 0.119408436 0.5042391 0.18856353 0.40851784 0.18675683
0.22467962 0.14010435 0.690322 0.4054329 0.24597871 0.3246836 0.22864626 0.2601309
0.17550634 0.3833315 0.3254476 0.6065908 0.64849097 0.14053462 0.26206338 0.3215462
0.034588132 0.19541048 0.38468894 0.79954463 0.2161234 0.45099473 0.20860866 0.7760627
0.18776336 0.32621786 0.2965533 0.354023 0.17408004 0.26356754 0.29582724 0.35473546
0.5595029 0.27522612 0.20251295 0.24328582 0.642017 0.21739504 0.5206717 0.3629929
0.5262073 0.05581785 0.29024312 0.29796332 0.45419845 0.27598387 0.59773636 0.18991245
0.2923148 0.20029463 0.32789376 0.46854186 0.039748028 0.1524496 0.49663815 0.5042334
0.02220716 -0.31628874 -0.114100344 -0.2169224 -0.25746256 -0.07751292 -0.18532288 -0.14480846
-0.06255823 -0.08499915 -0.4115639 -0.32961977 -0.1739203 -0.22900476 -0.19460186 -0.043908544
-0.18015017 -0.25872186 -0.016411621 -0.30173403 -0.38515553 -0.052200824 -0.24981852 -0.12101529
-0.19260849 -0.0365108 -0.24008852 -0.28270116 -0.2840024 -0.14396101 0.11478069 -0.3449993
-0.043468345 -0.04144682 -0.51257455 -0.21179913 -0.048335418 -0.022281753 -0.12515476 -0.20051499
-0.44019398 -0.26913512 -0.16711059 -0.08962388 -0.37622222 -0.15810251 -0.3239049 -0.3583913
-0.28505307 0.005652173 -0.056035645 -0.0005678572 -0.3675418 -0.27909783 -0.35078263 -0.057869595
-0.13514759 -0.11460983 -0.23192486 -0.36886168 -0.057524167 -0.16745746 -0.4613432 -0.25467038
0.3354742 0.43513995 -0.5874385 -0.7278644 -0.09321442 0.17996085 0.095005676 0.0851349
0.32552245 0.40695944 0.51749665 0.054452673 -0.33243623 -0.05508174 -0.10947814 -0.38244158
0.21057896 -0.13915005 -0.41771534 -0.21256235 -0.09620594 0.34232518 0.011857077 0.3127508
-0.046568837 -0.26354042 -0.16507305 -0.0609467 0.118712395 0.07657224 -0.2790814 0.37216085
-0.2856807 -0.39753184 -0.16568254 -0.18582939 -0.32230544 -0.14801654 0.47780567 0.02936792
0.085037254 0.10360591 0.05014976 -0.32273442 -0.2525759 0.002072802 -0.21219973 0.3931427
0.34089887 -0.23740017 0.41354 -0.41778287 -0.378162 0.06447093 0.080302 0.13088007
0.26551023 -0.036466893 0.10206674 0.2506564 0.32108855 -0.03219623 0.043694265 0.5273438
0.105242446 0.13202113 0.6256976 0.21212141 0.23500755 -0.07103271 0.27779973 0.20025389
-0.07177095 -0.102063395 0.66476274 0.48993215 0.074944094 0.23108895 0.38544315 -0.11193068
0.07135158 -0.011236363 -0.19489366 0.43850893 0.35889208 -0.033594888 0.17383806 0.11618683
-0.06858356 -0.082726695 0.1304061 0.5287961 0.056470472 0.31095922 -0.18618155 0.31011093
0.114452444 -0.10064512 0.31649536 0.04943121 0.12852223 -0.07032489 -0.0063685114 0.310392
0.48789212 0.1269111 0.0398602 0.19082056 0.6531555 0.11289184 0.49473444 0.3048134
0.0065174703 0.10984763 0.14002228 0.08948841 0.26579013 0.23545031 0.5894709 -0.027968787
0.18362314 0.06583385 0.20676705 0.21610834 0.0927915 0.15045314 0.62829757 0.45253336

lstm_cell.bias_hh f4 [256]
00000000: 1881 903e ba61 093f fddb fd3e a796 1c3e
00000010: b6fb 8f3e 20cd a63d 959d db3e b186 d53e
00000020: 4efc 4b3e d800 9c3e 5afc 303f fa55 b93e
00000030: bc2c dc3e d66e bd3e 3cbe 963e 2008 303e
00000040: ca70 873d df9b 983e c2e5 373e 2b4e 003f
00000050: 4b72 253f 6cb9 063e f17c 7b3e a795 313e
00000060: 6a16 133d 2eab 4b3e 3e50 883e a5f8 1f3f
00000070: e1af 953e bf6c c03e f13a bfbb 005c 423f
00000080: 4252 603e 8495 6c3e 87fe c23e bdc8 7b3e
00000090: 1212 333e 508c a33e d981 653e 7271 b73e
000000a0: f0ea 173f 9492 b53e d63d 123e 7015 b13e
000000b0: a81f 2f3f f11c c23d 5820 053f abaf ed3e
000000c0: e078 0d3f 5802 a5bc 42a0 d23d a609 473e
000000d0: 9065 8d3e 9172 9e3e 6c15 133f 1ba2 113e
000000e0: 6d70 b23e 513c 983e 4543 d83e 2f47 a23e
000000f0: 970b 4b3e 7c70 983e 8545 2d3f e3b3 a23e
00000100: ab34 32bd fcc4 9cbe 6e26 19be ff76 2cbe
00000110: 3ff9 98be 5ff0 0abe ec57 a0be 434a 9ebe
00000120: cabf e3bc 81a0 643d 837e abbe 874f 1cbe
00000130: e7bb 1ebe e19a 60be b874 6bbe 643e 83bd
00000140: aa6b 0ebe 96db 3ebe 7c88 6cbb cc94 d8be
00000150: 7fa6 04bf beaf 0abe 915f 3bbe a8c1 09be
00000160: 972a d3bd 7cff a6bd 42f7 dfbd 3236 fabe
00000170: 5a4f 8dbe f32e 4cbe 1218 c7bc 0202 f4be
00000180: 742b 69be 43ea d8bd deff ddbe 9021 b2bd
00000190: 8fab 90bd 9bc6 04be 18ac 0a3d 109d 42be
000001a0: 51b3 c0be 7b86 18be f96a f5bd 6fdf 2cbe
000001b0: d000 c7be d609 99bd 0c88 afbe a023 bbbe
000001c0: d2d2 a7be 628b 90bc f9d5 5cbd d157 46be
000001d0: 688b 8ebe 37d2 afbe 9c36 6fbe c4db 01be
000001e0: 7818 99bd 2d9f 4fbe c1ee e2bd 30a6 a6be
000001f0: becb a0bd f216 bbbc 9da5 debe 428f 9ebe
00000200: d5b1 993e 5ecc f43e 7991 2cbf d071 36bf
00000210: a859 a1be fe29 203e ad89 113e 6105 093d
00000220: e93f 8c3e d914 583e f271 9c3e 23ea fbbd
00000230: c32d 7abe 071e 393e 710c c03d 185c cbbe
00000240: 06bc 783e 0bb1 edbc 3fd5 c9be 95e2 9abe
00000250: bf3d 19bd 308d c83e adcd c0bd c50c 613e
00000260: 4761 e2bd e34f 8fbe 8a5d 40be 0149 96bd
00000270: fbc1 ac3e 10ec 2f3e 5d93 9cbe 0ad9 b43e
00000280: f230 6dbe 734a b9be 9096 333d 8328 8ebe
00000290: 4034 a3be dc38 cbbd 3310 bd3e ee8c 083e
000002a0: 0b7b 82bc 1710 d23d 2808 b43d b9d3 c2be
000002b0: b64c d4be 563a 133e a4c2 15be c81d d43e
000002c0: f507 093f 89a2 65bd 487f cf3e 38d2 ecbe
000002d0: cc92 9cbe f142 ce3d 2afb 413e 0427 e33d
000002e0: 9dc6 883e f3ab 213e 81a2 073e c4f2 ca3e
000002f0: 9ddb 963d f402 f8bc 525c 313c 6b0b be3e
00000300: f27d 0d3e defd 8a3e 90f9 de3e 5a3d 393e
00000310: 5f24 c93e 8a28 26bd 5b04 5a3e 8ae3 553e
00000320: ed31 9d3d 8a51 7dbd 12a8 1f3f 6a2b cf3e
00000330: 6bfb 043e 8151 623e 2645 143e 74df 25be
00000340: 7c64 55bd 5b91 433e 7cbf 68bd f081 d23e
00000350: 418c 9d3e 0999 0bbd 8d92 753e eb12 3c3e
00000360: 39dd c63c 1e99 21bd 452c 703e 7725 153f
00000370: d3b9 e0bd 0221 af3e fb5f 78bd 592e d43e
00000380: 2e65 1e3e a808 4cbb 11ce 823e 2a22 753d
00000390: d6d6 a83d e623 623d bc6b 43bd ac52 833e
000003a0: 73a0 183f 82e9 493e f216 e03c e473 113e
000003b0: 7066 243f e8df 32bd a65f d83e 464d 013f
000003c0: c54a f3bd d0ea 043d ef3f 793e 8721 f83d
000003d0: ee6c 623e 2f5f ee3d 83ad 283f b002 febb
000003e0: 3b3b a03e 7555 c13d 6230 603e c4ad 603e
000003f0: 9962 40bd 7dbe 393e 7a96 333f 9f2a ae3e
0.2822349 0.53664744 0.495819 0.15291844 0.28121728 0.08144593 0.42893663 0.41704324
0.19920465 0.30469394 0.6913506 0.36198407 0.4300288 0.36998624 0.29442012 0.171906
0.0661331 0.2980642 0.1795874 0.50119275 0.6462752 0.1315667 0.2455938 0.17342244
0.035910048 0.19889519 0.2662372 0.62488776 0.29235747 0.37582967 -0.005835884 0.7592163
0.21906379 0.2310391 0.38084814 0.24588294 0.17487362 0.31942987 0.22412814 0.3582874
0.5934286 0.35463393 0.14281401 0.34586668 0.6840768 0.094781764 0.5200248 0.46423087
0.55262566 -0.02014272 0.10284473 0.19437274 0.2761655 0.30946782 0.5745456 0.14221995
0.348514 0.29733518 0.42238823 0.31694934 0.1982864 0.2977332 0.67684203 0.31777868
-0.04350726 -0.30619037 -0.14956066 -0.16842268 -0.2987766 -0.13568257 -0.3131708 -0.30916032
-0.027801413 0.05581713 -0.33494958 -0.15264712 -0.15501367 -0.21934082 -0.22993743 -0.064083844
-0.13908258 -0.18638453 -0.0036092093 -0.42301023 -0.5181655 -0.13543603 -0.18298174 -0.1345278
-0.10310858 -0.081541985 -0.109358326 -0.48869473 -0.27599603 -0.19939785 -0.02430347 -0.47657782
-0.22770482 -0.10591557 -0.43359274 -0.08697808 -0.07063972 -0.12966387 0.033855528 -0.19005227
-0.37636808 -0.1489505 -0.11983294 -0.16882108 -0.38867807 -0.07472579 -0.34283483 -0.36550617
-0.3277803 -0.017644588 -0.053914998 -0.19369437 -0.27840734 -0.3434007 -0.23360676 -0.1268149
-0.0747537 -0.20275564 -0.11080695 -0.32548666 -0.07851361 -0.02283809 -0.43485728 -0.30968672
0.30018488 0.4781217 -0.67409474 -0.71267414 -0.31513715 0.15641019 0.14212675 0.033452395
0.2739251 0.21101703 0.30555683 -0.123005174 -0.24431519 0.18077861 0.09377373 -0.397187
0.24290475 -0.029015085 -0.39420506 -0.30250993 -0.0374124 0.39170218 -0.094142295 0.21977527
-0.110537104 -0.27990636 -0.18785682 -0.07338143 0.33741745 0.17179894 -0.3058118 0.35321838
-0.23163202 -0.36189613 0.04384476 -0.27765283 -0.318758 -0.099229544 0.36926422 0.1333501
-0.015927812 0.10256975 0.08790618 -0.38052157 -0.41464776 0.14377722 -0.14625031 0.4142897
0.53527766 -0.05606321 0.40526795 -0.46254134 -0.30580747 0.10071362 0.18943468 0.11091426
0.2671403 0.1578825 0.13245584 0.3963834 0.07366107 -0.030274846 0.0108252335 0.37118086
0.13817576 0.2714681 0.43549776 0.1808981 0.3928556 -0.040566005 0.21290724 0.2088758
0.07675538 -0.06184534 0.6236583 0.4046281 0.12986533 0.22101404 0.14479503 -0.16198522
-0.052097782 0.19098417 -0.05682324 0.4111476 0.30771068 -0.034081493 0.23981686 0.18366592
0.024275409 -0.039452665 0.23454387 0.5826029 -0.10972943 0.3420487 -0.06063841 0.4144161
0.15468284 -0.003113309 0.2554784 0.059847035 0.08244102 0.055210017 -0.047710165 0.2564901
0.59619826 0.19717982 0.027354691 0.14204365 0.6421881 -0.043670565 0.42260474 0.50508535
-0.118794955 0.032450497 0.24340795 0.1211577 0.22111866 0.116392486 0.6588976 -0.007751785
0.3129519 0.09440128 0.21893457 0.21941286 -0.04696903 0.18139072 0.70151484 0.34016892

out.weight f4 [18, 64]
00000000: f28b 723e e286 2c3e 95d1 e83e f7bb 19bd
00000010: 6c34 fd3e 027d 1a3b f90f b3bc 575d 593d
00000020: e7dc 113e 44a7 3d3e c25f b2be 5821 b83e
00000030: f72f 9e3d 63d7 e13e 761c 88be 7f5e 0c3e
00000040: 0a7b 39bc 7cbb acbe 9101 8f3d c97c a8be
00000050: 1a56 8bbe 8db0 2d3c 8665 4dbe c80d 92be
00000060: 841c db3d f6d0 95bd 7ad0 05be 997c 893f
00000070: 4d14 00bd bbba f43d f044 aabd d45b 19be
00000080: 28c5 0ebe 2a45 063d 9de7 9a3e 8bc2 0d3e
00000090: bd4e a7bd 88ae cb3c eb49 b0bd 14d8 133e
000000a0: e6e5 ab3e 764b d8bd 0e94 853d 3b57 63bc
000000b0: a9e6 843f 11be cebd 60b8 e73e e00e 0bbf
000000c0: 4495 a83e aa1d 72bd 67ca 3ebe 30af 8a3e
000000d0: 4867 e13e 81eb 13bc 82d5 febe 1105 f63d
000000e0: 1570 80be 4e60 073d 569a 58be 7180 7c3e
000000f0: d7be 1d3e 9e65 06be c3fe ed3c bd17 043f
00000100: 0b08 8fbe 2522 023e 7a72 6f3d 0bc2 ccbe
00000110: 5e76 7dbe 8914 d1bc 75fd a2bc a2b4 bd3d
00000120: 4e4a 44be 402b 48bd 7c36 55bd b2d9 ae3e
00000130: c46d d13d 81cf 4ebd c9cc 9fbe e414 db3d
00000140: c249 e8bd d951 073e f45d 723c 846a e5be
00000150: 780b 4d3d da15 35be f889 363e db23 583d
00000160: 2d63 5dbe 11ad eb3c 44dc 08be 0905 623f
00000170: c04e e13e 3b0c 9b3d fad8 d4bd 3cd0 bf3d
00000180: 9ebf 373e 2107 86bd db1b 8dbc e4ef 47be
00000190: 9144 f03d ea61 b93d baf1 9bbd ec56 2bbd
000001a0: fc85 a8bd d6ae 4dbe f32c 01be 02b3 263e
000001b0: 07ea f73e dfe0 cdbd 94f2 f33e 044d ba3e
000001c0: acc2 533d d451 3fbd bae9 64bd f847 043e
000001d0: c01a 6c3e 3ad0 abbc 1cd7 43bf a623 af3d
000001e0: 60fc bf3c dd50 823d dd30 85bc 03c2 b0bd
000001f0: 0234 abbd c170 413a 71d7 e53e 3bce eb3d
00000200: 526d 9e3e 1679 f6be 51dd be3e 1b33 9d3e
00000210: 379a ce3d 3c07 e9bc 0df6 b43d 498d 63bc
00000220: 8baf 0fbd 9d82 08bd deec 0fbf 9f71 be3e
00000230: 099e 303e c4ff b0be c53e 823d 5164 debd
00000240: f2c9 153c 7063 0d3e 4221 533e 975a 153f
00000250: c75b c6be f92e f4bd 10b2 29be 8b86 b7bd
00000260: 62e8 973d 5e1b f23d f474 b53e 5474 3abf
00000270: 1dc1 a03e 6b31 93be 6d52 2f3e 5300 de3e
00000280: d448 663e c239 ac3e 6e58 073e 4806 2ebc
00000290: e0b7 c93d e9c9 2cbe 1892 05be 84c7 783e
000002a0: bee7 8c3e 5683 87be 68ac ae3c 6aa1 793e
000002b0: d817 123f 3684 83bc d971 84be 981d e0be
000002c0: aa42 723e e4d1 d63c b1ab ffbd c8ea 61bd
000002d0: 6e66 2e3e 26f2 213e e237 393f f0e9 a4bd
000002e0: 952a 71be d127 d53c 5643 55be 1405 50be
000002f0: 47d4 ebbc 2f82 d3bd f2c9 48be 488b 7c3e
00000300: 839c 90be b194 0a3e b5fa 1bbe 6022 f83d
00000310: 531e 543e 0d52 ca3c 77ac 1d3e 63da 57be
00000320: 8908 3bbc b27e c53e cfeb a03f 91c5 93be
00000330: b1ef babd 0709 363d 2a07 98be 0348 8cbe
00000340: 4be3 2f3e 8b76 23be 79ce a93d f04c b33e
00000350: cacc c8be fc59 b03d 0866 1a3f 932e 863d
00000360: 8c1f 21be 0e03 11be aff8 e0bd 2142 03be
00000370: af32 3e3d 6fcc 873e 9219 393c 63f3 e3bd
00000380: 1609 e23d 1fd2 b4be c66a 5a3f 57b2 e5be
00000390: 70d5 9e3d 32a0 8abd 76ac ee3d fc3d fcbe
000003a0: 130c 4cbf 8b0c 3fbf 9125 b7bd 57c4 523e
000003b0: 16eb 4cbe f844 933e 1190 d23e 84c1 6bbf
000003c0: 8ddc 16bf 8552 a4bd 3caf a6bd e466 71be
000003d0: ed13 a8be 1cd0 a0bd 17fb 7d3e acac 01be
000003e0: 4209 dbbd 6017 08be ac28 563e 8a20 b93c
000003f0: 495d 2b3c 5b85 c6bd ccbd 633f 94e4 32bf
0.23686197 0.16848329 0.45472398 -0.037532773 0.49454057 0.0023573046 -0.021858202 0.05306753
0.14244424 0.18520838 -0.34838682 0.3596294 0.07723992 0.4410964 -0.26584214 0.13707922
-0.011320839 -0.3373679 0.06982721 -0.32907704 -0.27214128 0.010601175 -0.2005826 -0.2852614
0.10698798 -0.07315247 -0.13067809 1.0741149 -0.03126936 0.119496785 -0.0831393 -0.14976436
-0.13942397 0.032780804 0.30254832 0.13843744 -0.08169315 0.024863496 -0.08607849 0.14437896
0.33573836 -0.10561268 0.0652238 -0.013875778 1.0382892 -0.10094846 0.45257854 -0.5431957
0.3292638 -0.05911032 -0.18631898 0.27086782 0.4402411 -0.0090283165 -0.4977227 0.12012685
-0.25085512 0.033050828 -0.21152624 0.24658372 0.15404831 -0.13124701 0.029052144 0.5159872
-0.27935824 0.12708338 0.058458783 -0.39991793 -0.24752185 -0.025522487 -0.019896248 0.092629686
-0.1916897 -0.04886937 -0.052053913 0.34150463 0.10226014 -0.05049086 -0.31210926 0.10697344
-0.11342193 0.13214816 0.014792908 -0.44807827 0.050059766 -0.17684117 0.17826068 0.05276857
-0.21619864 0.028769048 -0.13365275 0.88288933 0.44005394 0.07570692 -0.103929475 0.093658894
0.1794419 -0.065443285 -0.017225197 -0.19525105 0.11731828 0.09051879 -0.07614465 -0.041830942
-0.082286805 -0.20086226 -0.12614803 0.16279224 0.48420736 -0.100526564 0.4764601 0.36386883
0.051699325 -0.046708897 -0.05588696 0.12918079 0.2305708 -0.020973314 -0.76500106 0.08551721
0.023435771 0.0636308 -0.016258651 -0.08630755 -0.08359529 0.00073791674 0.4489093 0.11513945
0.3094278 -0.48139256 0.37278226 0.30703053 0.10088008 -0.028445832 0.08835993 -0.0138886655
-0.03507952 -0.033327688 -0.56220806 0.3719606 0.17247786 -0.34570134 0.063596286 -0.108589776
0.009142386 0.13807464 0.20618156 0.58341354 -0.38741896 -0.11923022 -0.16571832 -0.08961209
0.074173704 0.11821626 0.3544079 -0.7283375 0.31397334 -0.2874864 0.17121287 0.43359622
0.22488719 0.33637816 0.13217327 -0.010621615 0.098495245 -0.16873898 -0.13044012 0.24294859
0.27520555 -0.2646739 0.021322444 0.24377981 0.5706763 -0.016054254 -0.2586811 -0.43772578
0.23658243 0.02622313 -0.124839194 -0.055155545 0.17031261 0.15815029 0.72350895 -0.080524325
-0.235514 0.026019963 -0.20826468 -0.20314437 -0.028787745 -0.10327565 -0.19608286 0.24662507
-0.2824441 0.13533284 -0.15232356 0.121159315 0.20714693 0.024697328 0.15397821 -0.21079402
-0.011415609 0.38573223 1.2571963 -0.2886167 -0.09127749 0.044442203 -0.29692966 -0.2739869
0.17176549 -0.1596319 0.08291335 0.35019636 -0.39218742 0.08610913 0.6031194 0.06551852
-0.1573469 -0.14161322 -0.10984933 -0.12818195 0.046435054 0.26523158 0.0112976 -0.11130407
0.11036889 -0.3531656 0.85319173 -0.44862625 0.07755554 -0.06768836 0.11653988 -0.4926604
-0.79705924 -0.74628514 -0.08942712 0.2058271 -0.20011553 0.28763556 0.4112554 -0.92092156
-0.58930284 -0.08023552 -0.08138892 -0.23574406 -0.32827702 -0.07852194 0.24802814 -0.12663525
-0.10695125 -0.13290167 0.20913953 0.022598524 0.010459253 -0.09693404 0.8896148 -0.6988003

out.bias f4 [18]
00000000: 3d30 c0be 127e a8be ff43 02bf a8ec 763e
00000010: adc8 833f 8b5c 10be c87f 10be 7eee ea3e
00000020: 7199 ea3e bbf7 cabe 4e07 c03e 7ce7 cf3e
00000030: 0e40 0bbd 483a 29be dc07 fd3e 0f07 0dbd
00000040: 144f 79be 842d 4bbf
-0.37536803 -0.32908684 -0.50885004 0.24113715 1.0295616 -0.14097802 -0.14111245 0.4588508
0.45820192 -0.39642128 0.37505573 0.40606296 -0.033996634 -0.16526139 0.4942006 -0.03443056
-0.24346572 -0.79366326
