pretrained/nameLan/checkpoint_rnn.pth (torch, 110815 bytes, 4 tensors)

i2h.weight f4 [128, 186]
0.22099403 0.26653692 -0.26748383 0.20059833 -0.22231819 -0.044630144 0.016371854 0.09897983
0.36329606 -0.2262151 0.28160182 -0.17920135 0.13618617 -0.058791913 0.049189758 -0.40926412
0.11236092 -0.08603615 -0.004718517 -0.11623266 0.17046064 -0.09699076 -0.3932409 0.053168755
0.033375543 0.07714359 -0.0852175 -0.08498051 0.064405635 -0.16581693 0.037150968 -0.020711772
0.09701441 0.08599561 0.13832033 -0.118911296 -0.03858192 -0.18208575 0.11236922 0.17223336
0.32817948 -0.05593948 0.120328486 0.0038969626 0.015292436 0.022372339 0.08359346 -0.19441655
-0.028146578 -0.065871276 -0.08365728 -0.28670502 -0.091104016 0.060164828 0.021119481 0.03037161
0.51716244 0.0038526023 0.115520224 -0.060060035 -0.07431671 0.0030369032 0.017470123 -0.01492036
0.11534937 -0.00832891 0.040729478 -0.102365635 -0.042521283 -0.024433328 0.13541801 0.027981723
0.10086278 -0.12805253 -0.04276677 -0.08283791 -0.03697636 0.026151653 0.06653599 0.03853482
-0.051754285 -0.006579134 0.06612553 -0.047753617 0.06287318 -0.17107072 -0.008517538 -0.006361692
-0.10615713 -0.041887186 0.108552106 -0.010678886 0.05033014 0.07843376 -0.029188508 -0.04404867
0.096412174 -0.08530349 0.059542775 -0.20343982 -0.032750987 -0.02563307 -0.03848511 0.005140864
-0.0060680974 0.031947102 -0.08619982 -0.0018680748 -0.047164157 0.04320143 0.095623285 0.07834699
0.010872555 -0.010310751 0.018113354 -0.0076561687 -0.05646046 -0.111131504 -0.06465361 -0.07410244
-0.034639347 -0.0897589 -0.015541552 -0.014685283 -0.070925586 -0.10066387 -0.03545153 -0.16093895
0.0960787 0.02232776 0.1342466 0.0038008548 -0.056280337 0.06538716 -0.022242837 -0.02937765
-0.12754734 -0.054113477 0.006833803 -0.049361743 -0.061049014 -0.14055642 0.10454259 -0.037469696
0.02943035 0.03414455 -0.0016376188 0.09053138 0.09887331 -0.008594502 0.06661684 0.018045446
0.0011964226 -0.032673117 0.070439756 -0.06459946 0.10494124 0.07796403 -0.003826968 -0.043502476
0.089345485 0.042576417 -0.08824643 -0.09076537 0.04806267 -0.08593912 -0.024429884 0.0072217714
-0.00015002456 -0.035644434 -0.089787 -0.005228626 0.021629894 -0.069743566 -0.045606606 -0.090874225
0.0027856387 -0.0060459874 -0.007184005 -0.15316476 -0.013302778 0.05043739 0.0073431036 0.047296785
0.05121941 0.054040425 -0.03858572 -0.13351241 -0.09006021 -0.19430241 0.024476634 -0.23485626
-0.20251216 0.17035848 0.052029368 -0.023860507 -0.39610273 -0.3071119 -0.107428335 0.18738022
-0.17802642 0.018924225 0.123898044 -0.013745304 -0.034704894 -0.08257923 -0.2102495 -0.41100082
-0.18309543 0.01998635 -0.24619493 0.03639533 -0.058588397 -0.08571186 0.09213901 0.27005315
0.07596668 0.0767989 -0.017608192 0.1759414 0.14961594 0.0627158 0.11235373 -0.044423554
-0.084459856 0.20193788 0.06062556 0.0837258 0.16206774 0.17712273 0.18183306 0.3902925
0.019037541 -0.060053658 0.4422193 0.16207463 0.24875931 -0.025541028 -0.04946679 -0.068583086
0.030015875 -0.035999518 -0.24809137 -0.09822774 0.0038665426 -0.0063831704 -0.120365456 -0.035106897
0.006579809 0.01093436 -0.08375029 -0.017755793 0.06622688 -0.09721228 -0.08875971 -0.050102558
00000000: 424c 623e 8777 883e a4f3 88be a669 4d3e
00000010: 61a7 63be 19ce 36bd 441e 863c f0b5 ca3d
00000020: f101 ba3e eea4 67be 1d2e 903e 8f80 37be
00000030: 6374 0b3e cacf 70bd 337b 493d 118b d1be
00000040: 7b1d e63d b933 b0bd ca9d 9abb 640b eebd
00000050: 3c8d 2e3e 17a3 c6bd df56 c9be 7bc7 593d
00000060: cbb4 083d 75fd 9d3d 8386 aebd 430a aebd
00000070: 1ae7 833d eacb 29be 9d2b 183d bcab a9bc
00000080: 7eaf c63d 771e b03d d8a3 0d3e c487 f3bd
00000090: 1308 1ebd b074 3abe d521 e63d f15d 303e
000000a0: 2407 a83e cc20 65bd c86e f63d 2f64 7f3b
000000b0: 208d 7a3c 3246 b73c 0c33 ab3d 2215 47be
000000c0: a793 e6bc 85e7 86bd 8254 abbd 00cb 92be
000000d0: be94 babd 656f 763d c302 ad3c e2cd f83c
000000e0: c264 043f f17b 7c3b de95 ec3d 8301 76bd
000000f0: 5c33 98bd c806 473b 811d 8f3c 8774 74bc
00000100: 4a3c ec3d fb75 08bc f4d3 263d 13a5 d1bd
00000110: cc2a 2ebd 6728 c8bc 05ab 0a3e ed39 e53c
00000120: 2591 ce3d 3420 03be 352c 2fbd eca6 a9bd
00000130: 8674 17bd fe3b d63c 0544 883d b0d6 1d3d
00000140: 4dfc 53bd c795 d7bb d26c 873d 4c99 43bd
00000150: a7c3 803d 2a2d 2fbe 258d 0bbc be75 d0bb
00000160: e968 d9bd e691 2bbd 9150 de3d 7ff6 2ebc
00000170: fa26 4e3d e1a1 a03d bd1c efbc 616c 34bd
00000180: bf73 c53d 99b3 aebd 20e3 733d 8752 50be
00000190: e625 06bd 72fc d1bc 90a2 1dbd b174 a83b
000001a0: e4d6 c6bb f7da 023d 8889 b0bd 30da f4ba
000001b0: 342f 41bd fcf3 303d 24d6 c33d 6374 a03d
000001c0: cd22 323c 6dee 28bc 7562 943c 99e0 fabb
000001d0: 1543 67bd ea98 e3bd 1d69 84bd 05c3 97bd
000001e0: fde1 0dbd 84d3 b7bd fea1 7ebc 8b9a 70bc
000001f0: 6f41 91bd dc28 cebd a035 11bd 2ecd 24be
00000200: e9c4 c43d b5e8 b63c f177 093e c317 793b
00000210: 3686 66bd b4e9 853d 9c36 b6bc 66a9 f0bc
00000220: c59b 02be 18a6 5dbd 18ee df3b 8a2f 4abd
00000230: 880e 7abd 06ee 0fbe 6d1a d63d d379 19bd
00000240: eb17 f13c 28db 0b3d 5ea5 d6ba 8468 b93d
00000250: 177e ca3d f4cf 0cbc 696e 883d 0bd4 933c
00000260: 48d1 9c3a 3fd4 05bd b842 903d b94c 84bd
00000270: 6feb d63d 9bab 9f3d decd 7abb a72f 32bd
00000280: c4fa b63d 9c64 2e3d 8bba b4bd 32e3 b9bd
00000290: 5ddd 443d d900 b0bd 2e21 c8bc 9ca4 ec3b
000002a0: e94f 1db9 e6ff 11bd 3fe2 b7bd e554 abbb
000002b0: 2d31 b13c b7d5 8ebd fecd 3abd 441c babd
000002c0: 438f 363b 6b1d c6bb cd67 ebbb 39d7 1cbe
000002d0: e5f3 59bc 7097 4e3d 6b9e f03b 46ba 413d
000002e0: 72cb 513d 7e59 5d3d 0f0c 1ebd 7ab7 08be
000002f0: 7d71 b8bd 36f7 46be 3983 c83c 297e 70be
00000300: 595f 4fbe 7472 2e3e bf1c 553d 1c77 c3bc
00000310: facd cabe c53d 9dbe 6303 dcbd 9ae0 3f3e
00000320: 8f4c 36be fa06 9b3c 42be fd3d fc33 61bc
00000330: b826 0ebd 4d1f a9bd a54b 57be b36e d2be
00000340: 5e7d 3bbe 6aba a33c 861a 7cbe 4513 153d
00000350: 63fa 6fbd b389 afbd 61b3 bc3d 6844 8a3e
00000360: 6b94 9b3d be48 9d3d 0e3f 90bc fb29 343e
00000370: ec34 193e 2471 803d b619 e63d 79f5 35bd
00000380: 4af9 acbd cec8 4e3e 8252 783d 6f78 ab3d
00000390: 16f5 253e a95f 353e 7232 3a3e 6bd4 c73e
000003a0: 9ef4 9b3c d3fa 75bd 916a e23e e4f6 253e
000003b0: c3ba 7e3e 6b3b d1bc b09d 4abd 4a75 8cbd
000003c0: dae3 f53c 3b74 13bd aa0b 7ebe a02b c9bd
000003d0: d265 7d3b ea29 d1bb 2a82 f6bd 40cc 0fbd
000003e0: 709b d73b 0826 333c 4685 abbd 9974 91bc
000003f0: f5a1 873d 3b17 c7bd a7c7 b5bd 5738 4dbd

i2h.bias f4 [128]
-0.02979759 0.036917772 0.067305245 -0.009976783 0.11109821 0.049708888 0.03984227 0.025334299
0.015706157 -0.035999935 0.031631265 -0.0054130675 0.041650165 -0.03982591 0.028608814 0.0012601077
0.06665674 0.06675564 0.017055165 -0.07624141 -0.01679875 0.029397558 0.0029319138 -0.015406786
0.0038798642 -0.014490993 -0.03921623 0.042583928 -0.02161343 -0.068095475 -0.0034478924 -0.0018138633
-0.0054867873 0.023831518 0.06436961 0.036835838 0.016588958 0.0040445994 0.05363208 -0.08535391
-0.024589298 0.012846093 0.067363456 0.04954997 -0.056267355 -0.015163407 -0.028517997 -0.049409855
-0.03127396 0.012845096 -0.11602339 0.0034849867 0.02062617 0.06476378 0.021507889 -0.035689473
0.01707747 0.042364914 -0.026373077 -0.032639865 0.04615962 -0.062964834 0.0058101877 0.025567576
0.055778407 0.024755921 0.04104922 0.019350685 -0.017348636 0.025632808 0.10970286 0.025086375
-0.040067475 -0.052915167 0.021608664 0.039692726 0.019916112 -0.013169144 -0.074406885 0.05883508
-0.021289444 0.0870604 -0.06517112 -0.016299637 -0.017658377 -0.05656633 -0.04257616 -0.082735896
-0.022105724 0.07202552 0.11643089 -0.06462371 0.055699993 -0.03847003 5.3978224e-06 -0.10697577
0.024856871 0.0026318282 -0.01826157 0.01826772 -0.09022645 -0.008222581 -0.04641585 -0.03989512
0.0014006257 0.06573387 0.043016396 0.032898914 -0.01782968 0.012472902 0.0810152 0.13389497
-0.07704922 0.008561213 0.02577979 0.001631982 0.06588032 -0.01658784 0.098322295 -0.07263687
-0.067744896 -0.11841051 0.023764994 0.020367948 0.06569199 0.043322675 -0.013937296 -0.017607378
00000000: 131a f4bc 1737 173d 55d7 893d a975 23bc
00000010: 7587 e33d 8c9b 4b3d a631 233d e089 cf3c
00000020: 33aa 803c ab74 13bd c98f 013d 1a60 b1bb
00000030: 5d99 2a3d 7e20 23bd 085d ea3c 332a a53a
00000040: 5483 883d 2eb7 883d 46b7 8b3c 7524 9cbd
00000050: 889d 89bc 26d3 f03c 5a25 403b bf6c 7cbc
00000060: 5245 7e3b a16b 6dbc 33a1 20bd 7c6c 2e3d
00000070: a60e b1bc a475 8bbd 09f6 61bb 27bf edba
00000080: 82ca b3bb 513a c33c 37d4 833d 2de1 163d
00000090: 91e5 873c 8f88 843b 50ad 5b3d 08ce aebd
000000a0: 7f6f c9bc 6b78 523c daf5 893d e9f4 4a3d
000000b0: 9978 66bd f06f 78bc 939e e9bc fd61 4abd
000000c0: 2019 00bd 3d74 523c ac9d edbd 6064 643b
000000d0: 37f8 a83c dfa2 843d 5031 b03c 202f 12bd
000000e0: 0de6 8b3c d586 2d3d 5a0c d8bc 61b1 05bd
000000f0: df11 3d3d b5f3 80bd 6363 be3b 1873 d13c
00000100: e677 643d eecc ca3c 3a23 283d 5485 9e3c
00000110: ba1e 8ebc e5fb d13c e5ab e03d f181 cd3c
00000120: cb1d 24bd 93bd 58bd a704 b13c d794 223d
00000130: 1d27 a33c 65c3 57bc a362 98bd 0efd 703d
00000140: 3367 aebc b94c b23d 7078 85bd d186 85bc
00000150: 4da8 90bc 19b2 67bd 5764 2ebd 7071 a9bd
00000160: 1017 b5bc 1e82 933d 5273 ee3d 7059 84bd
00000170: ad25 643d c092 1dbd f11e b536 1d16 dbbd
00000180: a3a0 cb3c c07a 2c3b 4a99 95bc 2fa6 953c
00000190: a5c8 b8bd 01b8 06bc 8c1e 3ebd 1169 23bd
000001a0: 3395 b73a 7b9f 863d f631 303d 03c1 063d
000001b0: 8d0f 92bc 255b 4c3c 4ceb a53d c31b 093e
000001c0: fbcb 9dbd 5444 0c3c 2330 d33c 3be8 d53a
000001d0: 43ec 863d 39e3 87bc 335d c93d a4c2 94bd
000001e0: d6bd 8abd 3681 f2bd ceae c23c afda a63c
000001f0: 8689 863d 1e73 313d 4259 64bc 593d 90bc

i2o.weight f4 [18, 186]
-1.158149 -0.16036761 0.26134953 0.44304898 1.462041 -0.2587442 -0.82382494 -0.6620073
-0.91050047 -0.041028783 -0.6594941 0.034054607 -0.2597 0.12230748 -0.7732597 -0.06456854
0.009345819 0.5413942 -0.05368712 1.4458154 0.59297276 -0.31037214 -0.019990265 0.9877103
0.5253013 -0.2917517 0.06727355 -0.0126064895 -0.039255057 0.022267155 -0.009955276 0.04225806
-0.031923924 0.0511847 0.051850114 0.037668355 0.011084839 -0.025780033 0.05241436 -0.012074889
-0.026450364 0.05710665 -0.017811727 0.033508692 0.031198572 -0.027900143 0.048558246 -0.0057014283
0.038603496 -0.048118856 0.025334861 0.059724096 -0.057834923 0.06903402 -0.047275268 0.022703314
0.023342604 0.0002981591 0.044182777 0.010095646 0.12833548 -0.20474666 -0.2360581 0.0506063
0.025901636 -0.013188488 -0.017041644 -0.08206245 -0.12538257 -0.031269778 -0.00742998 0.3012462
-0.0529926 -0.050887704 -0.1800081 -0.18858024 0.030552875 -0.08583122 -0.20172581 0.10168483
0.083982445 -0.2918789 0.32776102 -0.08660045 0.24261099 0.021108426 0.029542932 -0.032482535
0.1348789 0.043574665 0.2656114 0.113762714 0.20306757 0.22284073 0.054021575 0.047213174
0.09285627 0.113759995 -0.09110221 0.025361132 0.06047277 -0.09637416 -0.3210123 -0.10654907
0.0762384 -0.012128149 0.0125211375 -0.07337876 0.13363098 0.112592176 -0.22649938 0.22903818
-0.10318176 -0.021688322 0.14030932 0.25606915 -0.09719009 -0.097080015 0.21742359 -0.14362977
0.1526246 -0.0627036 -0.042544518 -0.107139066 0.09114306 -0.080448836 0.009177869 -0.1519139
-0.01623879 -0.20723008 -0.11259665 0.047773957 -0.14641854 -0.022535596 -0.11599838 -0.0760499
0.1135785 -0.052597947 0.14216359 -0.24439648 0.17137937 -0.03439262 0.05562619 -0.0717139
-0.18394321 -0.05008612 -0.07655762 0.09002859 -0.22313142 0.2620867 -0.17201671 0.13103686
-0.018332457 -0.16350512 -0.06448787 0.06911643 -0.024719302 -0.1766207 0.26569736 -0.09174555
0.2048708 0.13338432 0.005666102 -0.06267375 0.009885352 -0.15546957 -0.07700588 0.28383803
-0.0975231 -0.27351677 0.18616228 -0.19132526 -0.012192243 0.24405415 0.08166044 -0.17274976
-0.10040073 -0.06805788 0.35981026 0.23330295 0.11194185 -0.33269793 -0.20469965 0.106174275
-0.12015419 -0.1451652 -0.7168048 -0.14546232 -0.08573234 0.12964414 0.3675856 -0.1066939
0.091843896 -0.1366608 -0.4427447 0.009539634 -0.19045255 0.126551 -0.019793471 0.37387827
-0.404463 -0.14557979 0.028932894 0.26210928 -0.1848302 0.14066018 -0.15523289 -0.09388121
0.010478265 0.017978359 0.79144484 -0.2278251 0.0005837663 0.01881859 -0.060969353 -0.023467544
-0.0036376703 -0.005998626 -0.035939146 0.06730292 -0.053656157 0.04469787 0.020595739 -0.031075003
0.03137623 -0.06201709 -0.053850863 0.039125577 -0.038048092 0.035188254 -0.06953813 0.01284883
-0.06911451 0.034347776 0.067760706 0.042337272 0.01824098 0.049310416 0.05241994 0.040117733
0.030133989 0.022578416 0.015885523 0.049246747 0.04080181 -0.034448624 -0.20134073 -0.19520527
-0.08698437 -0.09702245 -0.12219751 0.14884682 0.24245673 0.13432133 0.19944519 0.05201848
00000000: 3a3e 94bf 6837 24be 9bcf 853e 51d7 e23e
00000010: 2924 bb3f 1f7a 84be 31e6 52bf 4f79 29bf
00000020: 8f16 69bf cc0d 28bd 9bd4 28bf d87c 0b3d
00000030: 66f7 84be 587c fa3d 59f4 45bf 833c 84bd
00000040: 351f 193c cf98 0a3f 07e7 5bbd 7b10 b93f
00000050: 10cd 173f 19e9 9ebe a0c2 a3bc 95da 7c3f
00000060: 257a 063f 7b60 95be b7c6 893d 738b 4ebc
00000070: e9c9 20bd 9c69 b63c 741b 23bc ca16 2d3d
00000080: a9c2 02bd 0ca7 513d c960 543d 224a 1a3d
00000090: 2f9d 353c a630 d3bc 71b0 563d c1d5 45bc
000000a0: 6fae d8bc aae8 693d e6e9 91bc 6940 093d
000000b0: 2694 ff3c d78e e4bc 03e5 463d 0cd3 babb
000000c0: b31e 1e3d 4718 45bd 0e8b cf3c 41a1 743d
000000d0: 50e4 6cbd b561 8d3d b6a3 41bd 4dfc b93c
000000e0: fd38 bf3c 3d52 9c39 00f9 343d 3568 253c
000000f0: 606a 033e 1ca9 51be 37b9 71be 8d48 4f3d
00000100: ab2f d43c 8714 58bc eb9a 8bbc 5c10 a8bd
00000110: 4a64 00be bd14 00bd 3177 f3bb f13c 9a3e
00000120: c50e 59bd a06f 50bd 0b54 38be 2e1b 41be
00000130: 064a fa3c 47c8 afbd 3691 4ebe 2340 d03d
00000140: fdfe ab3d 2771 95be 4bd0 a73e 945b b1bd
00000150: 046f 783e 94eb ac3c 0504 f23c 680c 05bd
00000160: b21d 0a3e 597b 323d 38fe 873e 6dfc e83d
00000170: f2f0 4f3e 5c30 643e ba45 5d3d 9a62 413d
00000180: 6e2b be3d 00fb e83d cc93 babd 26c2 cf3c
00000190: 4cb2 773d d15f c5bd b95b a4be 6636 dabd
000001a0: e122 9c3d 25b5 46bc 7525 4d3c 9a47 96bd
000001b0: 8fd6 083e ba96 e63d 74ef 67be fc88 6a3e
000001c0: f550 d3bd b5ab b1bc 3fad 0f3e 7f1b 833e
000001d0: 990b c7bd e3d1 c6bd 4aa4 5e3e af13 13be
000001e0: a049 1c3e bf6a 80bd 2943 2ebd ba6b dbbd
000001f0: 36a9 ba3d 5cc2 a4bd c65e 163c 518f 1bbe
00000200: 3607 85bc 1f34 54be 1399 e6bd a0ae 433d
00000210: beee 15be 929c b8bc 8f90 edbd 0dc0 9bbd
00000220: d89b e83d f270 57bd 5593 113e 1243 7abe
00000230: 137e 2f3e 47df 0cbd 4ad8 633d bdde 92bd
00000240: 9c5b 3cbe 1a27 4dbd 3eca 9cbd e960 b83d
00000250: 907c 64be 3a30 863e 2625 30be 872e 063e
00000260: f32d 96bc e36d 27be 3712 84bd ea8c 8d3d
00000270: 2280 cabc 0fdc 34be 7c09 883e 17e5 bbbd
00000280: a7c9 513e e695 083e b5aa b93b 185b 80bd
00000290: 2cf6 213c 6a33 1fbe 42b5 9dbd 3853 913e
000002a0: 31ba c7bd 640a 8cbe 53a1 3e3e c5ea 43be
000002b0: f9c1 47bc 55e9 793e 973d a73d 50e5 30be
000002c0: e69e cdbd ee61 8bbd 0d39 b83e f8e6 6e3e
000002d0: c541 e53d 6257 aabe c99c 51be e671 d93d
000002e0: 6613 f6bd 30a6 14be 8580 37bf 13f4 14be
000002f0: 7094 afbd 6fc1 043e 2e34 bc3e 5582 dabd
00000300: a718 bc3d cff0 0bbe 6faf e2be 204c 1c3c
00000310: fe05 43be 9696 013e eb25 a2bc f96c bf3e
00000320: c615 cfbe de12 15be ad04 ed3c 3033 863e
00000330: 2144 3dbe 3909 103e 5ff5 1ebe cb44 c0bd
00000340: 07ad 2b3c 5a47 933c 219c 4a3f fc4a 69be
00000350: e507 193a 7229 9a3c 00bb 79bd 023f c0bc
00000360: fb65 6ebb 1f90 c4bb ed34 13bd 1dd6 893d
00000370: 8fc6 5bbd 1d15 373d 65b8 a83c 0191 febc
00000380: 5d84 003d a205 7ebd b992 5cbd 2442 203d
00000390: 51d8 1bbd 8f21 103d 026a 8ebd e683 523c
000003a0: e98b 8dbd 41b0 0c3d 20c6 8a3d d969 2d3d
000003b0: 1c6e 953c b8f9 493d 4ab6 563d 7e52 243d
000003c0: 8edb f63c 5ff6 b83c 5b22 823c f5b6 493d
000003d0: cc1f 273d 001a 0dbd 442c 4ebe e4e3 47be
000003e0: dd24 b2bd b5b3 c6bd b042 fabd 4d6b 183e
000003f0: 9446 783e 888b 093e 5c3b 4c3e 5411 553d

i2o.bias f4 [18]
-0.19418791 -0.541694 -0.84766763 0.60877305 2.505254 -0.96559125 -0.35424146 0.12948559
2.1735442 -0.12857026 -0.014493485 0.8671166 0.057514496 -0.8505416 0.0044789845 -0.30932364
-0.28799134 -1.7320149
00000000: 32d9 46be 75ac 0abf bf00 59bf 8dd8 1b3f
00000010: 1556 2040 fd30 77bf 235f b5be df97 043e
00000020: 591b 0b40 eca7 03be 1576 6dbc 5afb 5d3f
00000030: 5294 6b3d 18bd 59bf 72c4 923b ab5f 9ebe
00000040: 9a73 93be aab2 ddbf
